checkpoints/checkpoint999.pt (torch_old, 89222 bytes, 7 tensors)

embed.weight f4 [42, 8]
000000 3c 06 a7 bf 19 49 b8 bf a6 f3 a3 be 86 72 a1 be
       -1.3048778 -1.4397308 -0.32021827 -0.31532687
000010 ae 20 85 3f 31 bc 58 3f 8c f4 cc be 2a ca 20 c0
       1.0400598 0.8466216 -0.40030324 -2.512339
000020 e7 58 8c 3f fd 70 a7 bf 0e 47 a2 3e 66 7c 83 bd
       1.0964631 -1.3081356 0.31694835 -0.064202115
000030 54 da d4 be 3b 43 f2 3f 12 8e ab 3f cb 0d 4a be
       -0.4157282 1.8926767 1.3402731 -0.19731824
000040 87 92 ab bf 1b 73 fc bf 3b 2a 81 3f df 54 8f 3f
       -1.3404092 -1.9722627 1.0091013 1.1197776
000050 c4 de 6e 3f 31 0a d6 bf c0 47 13 bf f5 17 17 40
       0.93308663 -1.672186 -0.57531357 2.3608372
000060 2f 8d 73 3e 74 8f b3 bf 0c f1 1f 3f ab c8 8f 3f
       0.23784326 -1.4028153 0.62477183 1.1233114
000070 72 0b 1a 40 90 45 b7 3f c7 ae d2 3f ce 76 81 bf
       2.4069486 1.4318104 1.6459588 -1.0114381
000080 63 8f f3 bf 4c db 29 bf d2 e6 91 3d 41 ee 91 3f
       -1.9028133 -0.66350245 0.071241036 1.1400834
000090 f4 4e b3 3f 99 7f c0 be 49 a8 f3 3f 54 63 3d 3f
       1.400847 -0.3759735 1.9035732 0.7397969
0000a0 eb 26 81 be b9 12 b9 3f 64 82 1d be c3 0f c5 bd
       -0.25225005 1.4458839 -0.15381771 -0.09622147
0000b0 07 98 ee 3e 01 05 2d 40 21 fe 07 c0 ee 1f 01 c0
       0.46600363 2.7034304 -2.1248858 -2.0175738
0000c0 d9 77 92 bd 1b ae 00 40 d6 a8 c2 3f 36 8d 33 bf
       -0.071517654 2.0106266 1.5207775 -0.70137346
0000d0 22 bf 71 bf 78 24 90 be 2b 90 40 3e 28 c9 fa be
       -0.9443227 -0.28152823 0.18804996 -0.48981595
0000e0 94 8c 75 bf 7e 8e 55 3e 55 af 02 40 8f 83 85 40
       -0.9591763 0.20855138 2.0419514 4.1723094
0000f0 03 23 94 bf 40 ea 00 c0 2c f2 18 40 53 fd 18 bf
       -1.1573185 -2.0142975 2.389781 -0.5976154
000100 61 c6 f9 be 74 e8 d4 3f ca fe 0d 3f 4d 8e b5 3f
       -0.48784164 1.6633439 0.554669 1.4184052
000110 6c 53 0c c0 23 e5 4e 40 05 31 43 bf 25 d5 27 3f
       -2.1925917 3.2327354 -0.7624667 0.6555961
000120 ba 0b 2a c0 22 84 f5 bd ad 9f 69 be e4 72 1e bf
       -2.6569657 -0.11988093 -0.22814818 -0.6189406
000130 fd 03 03 c0 e3 5e 88 3f 99 fb f3 3e 16 e5 f0 3e
       -2.0471184 1.0653957 0.4765289 0.4704978
000140 ee ec c6 3e 54 f2 9e 3f ac 18 c0 bf 51 c5 0e bf
       0.38852638 1.2417703 -1.5007529 -0.5576983
000150 83 83 b6 3e 98 9b a5 be 56 a0 b2 3f 49 50 f9 3f
       0.3564721 -0.3234527 1.3955181 1.9477626
000160 e2 b0 c4 bd 69 ce 35 40 fe 23 31 c0 1c 11 e6 bd
       -0.0960405 2.8407233 -2.7678218 -0.11233732
000170 9c 4f 3e bf 7a ba b5 bf 36 7d 45 bf 0d e6 51 3f
       -0.74340224 -1.4197533 -0.7714418 0.81991655
000180 fa 69 c7 3f 77 c1 03 c0 6d 40 61 bf c7 19 b8 3d
       1.5579216 -2.0586832 -0.8798893 0.08989292
000190 ae aa 69 c0 ab fb 14 c0 c5 f6 cf be 84 80 e1 3d
       -3.6510425 -2.3278606 -0.40617958 0.110108405
0001a0 25 a9 87 3f 0d 1e 97 3f 4a 7e a6 be 34 6f 5e bd
       1.0598494 1.1806046 -0.32518226 -0.05430527
0001b0 55 6e af bd f3 dc 06 3f 17 28 61 3f db 08 f1 bf
       -0.08565966 0.5268089 0.879518 -1.8830827
0001c0 8d 55 c0 bd 9e 62 fd bf f0 12 ea bf 00 52 fa be
       -0.093913175 -1.979572 -1.8287029 -0.48890686
0001d0 8b 72 7d 3f 42 09 8e 3f 44 0a f2 bf c9 8b 48 3f
       0.99002904 1.1096575 -1.8909383 0.78338295
0001e0 1e 2e 70 bf 9d 9b 0e c0 df d3 92 3f 36 c3 f0 bf
       -0.9382037 -2.228248 1.1470908 -1.8809574
0001f0 ad 99 72 bd eb 1e 12 40 e9 b8 11 bf 1c a7 cb 3f
       -0.059228588 2.283137 -0.56922776 1.5910373
000200 43 79 bb 3d b5 49 8f bf b4 61 07 c0 86 82 1e bf
       0.09153988 -1.1194369 -2.1153383 -0.6191791
000210 93 85 f7 be 62 46 bf 3f 5f 51 fc 3e f9 7c fe bf
       -0.48344097 1.4943354 0.4928083 -1.9881889
000220 6c e1 a6 bf 33 86 cd 3f 1f f6 ff be 70 52 8d bf
       -1.3037543 1.6056579 -0.49992463 -1.1040783
000230 b1 26 2d bf 47 1e eb bd 06 7b 8a be 12 2b ba be
       -0.67637163 -0.11480384 -0.27046984 -0.36360985
000240 94 af 11 40 39 7a 6b be 67 a1 3b bf b0 a7 44 3d
       2.2763414 -0.22995843 -0.73293155 0.04801148
000250 ef 0b 19 3f 5b 9d 74 be 1c 61 fd bf d6 82 09 bf
       0.59783834 -0.23888151 -1.979526 -0.53715265
000260 52 6b c9 be 2f cc 15 3f 32 1e 16 bf d9 d4 56 3f
       -0.3933969 0.58514684 -0.58639824 0.8391853
000270 ea 04 25 c0 49 f3 59 bf bf 09 9c bf e8 aa 01 be
       -2.578425 -0.8513685 -1.2190474 -0.12662852
000280 fa 0b 99 3f 1b cf 80 bf ad f6 31 3f 15 00 da 3e
       1.195678 -1.0063204 0.6951702 0.42578188
000290 55 62 c2 3f 1d 4a 81 c0 86 2d 03 3f 4b ff f7 be
       1.5186259 -4.040297 0.5124134 -0.4843696
0002a0 b7 9e 9a bf 5c 31 ae bf 05 95 c7 be ad ad b2 bf
       -1.2079686 -1.3608813 -0.3898088 -1.3959252
0002b0 90 35 74 bf 76 66 b4 bf 16 99 6f bf 2a cb bf 3e
       -0.9539423 -1.4093769 -0.93592966 0.3745969
0002c0 ab ae 8e 3e 61 74 ca 3f 2f 58 84 c0 46 48 3a bf
       0.27867636 1.5816766 -4.1357646 -0.7276653
0002d0 0a 83 51 3f 73 5f 68 3f 56 05 72 3f a6 1e 5a 3f
       0.81840575 0.90770644 0.9453939 0.85203016
0002e0 57 6f f3 3e da a4 78 be 05 1c 3c 3e 35 98 dd bf
       0.47545883 -0.24281636 0.18370064 -1.7312075
0002f0 b7 bb 2a be 56 86 ea be 9b a8 1b c0 43 5b d3 be
       -0.1667317 -0.45805615 -2.4321659 -0.41280565
000300 01 47 a1 bf bb 34 37 3f cc 91 d2 3f f3 7a 76 3f
       -1.2599794 0.71564835 1.6450744 0.96281356
000310 67 80 fc 3e fe 01 69 3f 49 d8 e8 be 43 63 13 3f
       0.49316713 0.91018665 -0.45477512 0.57573336
000320 b1 bc ca 3f 5f e7 bf 3e 92 fd d7 bf e8 2e 97 3e
       1.5838834 0.3748121 -1.6874259 0.29527974
000330 14 82 40 3e bc 82 33 3f df af f8 3e 69 68 7b bf
       0.18799621 0.7012136 0.4857168 -0.9820619
000340 9b 72 61 3f 4f 07 5a 3e d9 32 f8 3f d4 8d 01 40
       0.880655 0.2129185 1.9390517 2.0242815
000350 d7 05 e4 be a0 d2 ef bc d4 5b 7d be 18 d2 8f bf
       -0.44535705 -0.029275239 -0.24742061 -1.123599
000360 a9 b4 85 bf cc 0e 61 3f 61 85 59 3f 17 3d fb 3f
       -1.0445758 0.87913203 0.84969145 1.9628018
000370 77 b5 d1 3f 10 9c 8b bf 9f 7a 82 bf 32 d9 d9 bf
       1.6383504 -1.0907001 -1.0193671 -1.7019408
000380 63 f1 dd bf 2b 72 d2 3f 4e 46 be 3f ed b5 8d 3e
       -1.733929 1.6441091 1.4865205 0.2767786
000390 50 4e a9 3f 31 b0 90 bf 04 a6 b0 3f 05 e5 13 c0
       1.3227024 -1.1303769 1.3800664 -2.3108532
0003a0 aa 45 67 be 25 6a 90 be fd 95 44 3e 60 f7 0c 40
       -0.22585168 -0.28205982 0.19197841 2.2025986
0003b0 3d 06 11 bf 78 b5 78 3f 27 fa 1b 40 86 62 2c c0
       -0.56650144 0.971519 2.437143 -2.6935134
0003c0 c7 b2 c7 bf de e3 ec bf f4 44 db 3f 7e 82 8b bf
       -1.5601434 -1.850704 1.7130418 -1.0899198
0003d0 6c 68 c1 3f bb a8 06 c0 a1 d8 a3 3f 1a 7f 52 bf
       1.5109992 -2.1040485 1.2800485 -0.8222519
0003e0 15 32 83 be 1b 3b 9f 3f 1c 9c bd 3f 51 f9 a9 3e
       -0.25624147 1.2439913 1.4813266 0.33198026
0003f0 39 c1 55 bf a9 b8 ed be a8 21 2f 40 72 1d bb bf
       -0.8349796 -0.46429947 2.7364292 -1.4618361

rnn.weight_ih_l0 f4 [256, 8]
000000 8a 1f c5 3c 3f 76 b6 3e 46 d6 a7 be fb cb f3 3d
       0.02406289 0.3563709 -0.32780665 0.119041406
000010 4d b9 91 be 40 1c 60 bd 23 58 64 3e fa b5 93 3d
       -0.28461686 -0.05471444 0.22299246 0.07212444
000020 2d 1a 82 3e d2 da b6 3e 4e b3 4b 3f bb 84 68 3f
       0.25410596 0.35713822 0.7957047 0.9082753
000030 ef aa 6d be b3 f4 36 3e a8 02 45 3f 01 fb a2 3e
       -0.23209737 0.17866783 0.7695718 0.31832126
000040 2b 4f 25 be 83 b7 00 be 4a d9 6e bd f0 c8 75 be
       -0.16143481 -0.12570004 -0.05831269 -0.24002433
000050 d6 24 4f 3e 1c f9 80 3f 8a 0e 29 bf a5 07 60 be
       0.20228896 1.0076022 -0.6603781 -0.21877916
000060 27 86 53 bf 32 fd 15 bf e1 5a 35 3e 82 14 0d 3e
       -0.82626575 -0.5858947 0.17710449 0.13777354
000070 8c 48 87 3e 48 2c d3 3e 45 ea e1 3e f4 58 18 bf
       0.26422536 0.4124472 0.44124046 -0.5951073
000080 7f 23 a5 be 5c 66 6c 3d 1e 5f 30 bf 77 93 9c 3e
       -0.32253644 0.057714805 -0.6889514 0.30581257
000090 73 a6 be be 9d a0 5d be 01 b3 0c be 86 88 6e be
       -0.37236366 -0.216433 -0.1374016 -0.23294267
0000a0 c9 92 66 be 97 b0 fb bc 7d e2 9b 3e cd 5d 7d 3e
       -0.22516932 -0.030723853 0.30446234 0.24742813
0000b0 22 ec 9c 3e 34 1f 4c 3f 32 6c 91 bf 6d 23 e9 be
       0.30648905 0.7973511 -1.1361144 -0.4553484
0000c0 b7 ae 0f 3f 2e 11 22 3f da f9 21 3e bd 3d 34 be
       0.5612597 0.63307464 0.15817967 -0.17601676
0000d0 d8 11 33 be 38 44 01 bf 90 bc 1c bf a0 f5 ed 3d
       -0.17487276 -0.5049472 -0.61225224 0.11619115
0000e0 85 81 cd be c7 67 75 bf 92 d9 b0 3d fe 7d 1a 3f
       -0.40137878 -0.95861477 0.08635248 0.603485
0000f0 b3 50 3b 3e 0a d9 47 bd d9 13 96 bd 23 74 31 bf
       0.18292503 -0.04879097 -0.073280044 -0.69317836
000100 49 43 15 3f 28 51 f9 bc 5d 01 51 be ba 89 12 3f
       0.58305794 -0.030434206 -0.20410676 0.57241404
000110 7b 39 2c bd 6c f3 cf bd 7f b3 76 3d 1f 0e fc 3e
       -0.042047005 -0.10153851 0.060229775 0.49229524
000120 ae 3a a1 be ee b2 92 3e ea b7 3c be 92 99 8b 3e
       -0.31490082 0.28652138 -0.18429533 0.27265602
000130 aa 8a 9a be eb 39 e0 be 05 28 ef bd 14 37 d9 3d
       -0.30183917 -0.43794188 -0.11677555 0.106062084
000140 f7 47 83 bd 33 a8 ee be ff 95 15 be ef 50 60 3e
       -0.064102106 -0.466127 -0.14608 0.21905874
000150 21 a9 25 be 43 6a 2d bd f9 3a ae 3d 82 fa c6 3d
       -0.16177799 -0.042337667 0.08507342 0.09715749
000160 bf 4b 00 3e 32 b4 3c 3d 6f ff 24 bf 0c ce e3 3d
       0.12528895 0.046070285 -0.6445226 0.11123285
000170 77 1a 34 be 97 1b ea 3c c9 be bb 3e 47 74 87 bd
       -0.1758822 0.028577609 0.36668995 -0.06613975
000180 b1 f7 19 be 8f 8a b7 3e 7a e7 4d be 64 ac 0e be
       -0.15035893 0.358479 -0.20107833 -0.1393295
000190 34 e2 95 3d 8e 25 05 be 45 3f 3c 3b 7a b3 b1 be
       0.073185354 -0.13002607 0.0028724235 -0.34707242
0001a0 96 43 f8 be 27 a2 95 be 4d 5e 30 be d9 cd a2 be
       -0.48489064 -0.29225275 -0.17223473 -0.31797674
0001b0 ff 01 8f bc fd 2e 08 3c 99 1e 98 be 36 51 b4 bb
       -0.017457006 0.008311984 -0.29710844 -0.005502845
0001c0 41 47 cf 3d 96 ef 19 be 86 40 0b 3f 42 9f 62 3e
       0.101210125 -0.15032801 0.5439533 0.22131065
0001d0 30 c0 22 3f d3 06 ea 3e b6 30 22 bf b0 a8 ad be
       0.63574505 0.4570833 -0.63355577 -0.3391776
0001e0 3b 7d 70 3e 05 3d 68 3e ce 2e 09 be 15 06 6b 3e
       0.23485272 0.22679527 -0.13396761 0.22951539
0001f0 96 0d 65 be 53 73 92 be 6a c8 43 bf d8 6f 30 be
       -0.22368464 -0.2860361 -0.7647768 -0.17230165
000200 a6 2b 6f be a4 27 50 be 81 76 b1 3d ee 35 f5 bd
       -0.23356494 -0.20327622 0.08665181 -0.11973177
000210 3e 6c 7e bd 5d e3 fd 3c 44 76 83 bd 05 91 f1 bc
       -0.062114947 0.030992204 -0.06419042 -0.029488096
000220 c2 85 5e be 69 26 9b be 5e 0c 0c be eb 5a 11 be
       -0.21730712 -0.30302742 -0.13676593 -0.14194839
000230 aa 19 15 3d a3 cd 68 3e 30 f5 3d be b0 2e 8d be
       0.03640143 0.22734694 -0.18550563 -0.27574682
000240 bd 9f 89 be 38 48 c7 be f8 9d 0e bf d1 f7 cc 3d
       -0.26879683 -0.38922286 -0.5570979 0.10008205
000250 36 12 59 3d cb 8b b9 3e 96 b6 c2 3e d3 34 0e 3e
       0.052995883 0.36239466 0.38029927 0.13887338
000260 f3 e6 2a be 13 11 13 3f 8d 5f 2b 3f 22 71 01 3d
       -0.16689663 0.5744793 0.66942674 0.031602032
000270 62 58 ea bd da 32 fd 3e 03 65 5b 3d f4 d3 eb 3e
       -0.11442639 0.4945286 0.05356313 0.46060145
000280 fb 22 fa bd 2a 5f e6 bd b3 bc 33 3e eb 9e 49 3e
       -0.12213703 -0.1124862 0.17552452 0.19689529
000290 28 4f 99 be b6 28 f3 3b 6a 86 7e 3f e3 d1 26 3e
       -0.29943204 0.0074206246 0.9942385 0.16291003
0002a0 14 d3 80 be c0 61 4f be e8 9b 16 3f c2 a8 66 be
       -0.2516104 -0.20252132 0.58831644 -0.22525313
0002b0 11 c3 aa 3e 3e 15 0a 3d 89 0f 2f 3f 87 94 73 3e
       0.3335195 0.033711664 0.6838308 0.23787127
0002c0 f9 79 40 be cc 3b 78 be c9 37 ed 3b c3 f4 ff bc
       -0.18796529 -0.2424156 0.007239316 -0.031244641
0002d0 c9 5f 5b 3e 9e 90 03 3e a3 df 3f 3e 0e bd 3d bd
       0.21423258 0.12848136 0.18737654 -0.046322875
0002e0 b8 c6 d9 3d 37 50 44 bc 56 4c bc bc 6b 81 9f 3d
       0.10633606 -0.011982015 -0.022985619 0.077883564
0002f0 a5 ae 82 be 32 dd f0 bd 6e b7 7c 3e 9b 97 51 bd
       -0.25523868 -0.1176094 0.24679348 -0.051169973
000300 aa 32 c4 3e ee da f3 be ea 63 5b 3e 13 b0 8d 3e
       0.38319904 -0.47627968 0.21424833 0.27673396
000310 a4 c7 53 be 57 a1 ba bd f2 ba 90 be 54 47 c8 3e
       -0.20681626 -0.091128044 -0.28267628 0.3911692
000320 41 ca b0 bd b0 0c d0 bd 4c a8 2c 3f 9d d1 a2 3e
       -0.08632327 -0.1015867 0.674443 0.31800547
000330 a1 5c 8c bd 7a 24 66 3d 0a 9a 2d 3e f5 3c a0 bd
       -0.06853605 0.05618713 0.16953292 -0.07824127
000340 a0 40 8a 3e 23 0f 04 3f e4 f4 3e be a3 80 3e be
       0.2700243 0.51585597 -0.18648106 -0.18603759
000350 0a 82 84 be 7c 58 f0 bd 73 35 9f be 3a c9 a8 bd
       -0.25880462 -0.11735627 -0.31095466 -0.08241506
000360 1f 97 b8 3e 0c a6 12 3e 3b a0 2c be 98 f3 50 3f
       0.36052796 0.14321154 -0.16857998 0.81621695
000370 7e 90 c4 bd af 35 55 be a6 88 da 3e 5c 39 cf 3c
       -0.09597872 -0.2082126 0.4268238 0.025295906
000380 70 07 5b be f7 a1 30 be 63 53 04 bf 36 a9 a2 3f
       -0.21389556 -0.17249285 -0.5168974 1.2707889
000390 9e b0 2a be 7d 62 8d bc ad b3 a2 bd 71 da e1 bd
       -0.16668937 -0.017258877 -0.07944427 -0.110279925
0003a0 ed c7 ce 3e 29 a3 88 be 3d cc 99 bb 7d e0 2a be
       0.40386906 -0.2668698 -0.0046935366 -0.16687198
0003b0 8a 7f 09 3f 78 34 b4 3e cc 74 ca 3d 7d b4 9a bd
       0.53710234 0.3519628 0.098855585 -0.07553957
0003c0 d1 12 23 bc 9f cd 74 3c 5d 71 e8 bd 06 cc 5c bd
       -0.009953217 0.014941602 -0.11349747 -0.05390551
0003d0 f3 9f 0e be 63 ef 76 be 81 41 c5 bc d5 21 23 3e
       -0.13928203 -0.24114756 -0.024079086 0.15930875
0003e0 80 7a f0 bc ba 8c 98 be 8d 4a eb 3e f3 59 9c bd
       -0.029355288 -0.29794866 0.45955315 -0.07634344
0003f0 ea 70 13 3f 9c 96 1d 3e b5 ca d6 3e 00 ca 4b bf
       0.5759417 0.15389484 0.41951528 -0.796051

rnn.weight_hh_l0 f4 [256, 64]
000000 74 77 a9 3e b6 d9 ef bd 86 94 a5 3e eb b4 f5 bd
       0.33098948 -0.11711447 0.32339877 -0.11997398
000010 bf f6 65 3c 59 6d 9d 3d 29 a0 87 3e 23 00 1e 3e
       0.01403588 0.07686872 0.2648938 0.1542974
000020 d8 a0 61 be 29 e1 6f be f8 64 b5 bc 41 b7 04 bf
       -0.22034013 -0.23425736 -0.022142872 -0.51842123
000030 19 9d 0e 3e 42 11 f3 be f1 f4 86 be c1 f9 e6 3e
       0.13927115 -0.47474104 -0.2635875 0.45112422
000040 31 78 57 3e be 1e 90 3e c4 40 39 3e 0b 7e 77 be
       0.21041943 0.28148454 0.18091112 -0.24169175
000050 ca 3b 98 3d 52 3a 7a 3d ec e7 5f be 92 22 d7 be
       0.07433279 0.061090775 -0.21865815 -0.42018563
000060 c2 8d 1b bd 1a 93 c3 be 1b 97 29 be c5 4f 8d bd
       -0.037976988 -0.38198167 -0.16561548 -0.068999805
000070 84 86 ef 3e 39 d8 86 3e cd b2 19 bd 44 e8 f0 be
       0.46782315 0.2633684 -0.037524033 -0.47052205
000080 54 66 b3 be 28 33 a1 be 70 d8 4c be 96 6b e9 3d
       -0.35039008 -0.31484342 -0.2000444 0.113974735
000090 1b d9 fe 3d 55 be 28 3e 5f 0c 3e 3e ba 2f b8 3e
       0.12443753 0.16478856 0.18559407 0.35973912
0000a0 90 9a 32 be d1 14 2c bd b9 ee 1e 3e fa 9d b2 3e
       -0.17441773 -0.04201204 0.15520753 0.34886152
0000b0 30 67 ba 3d 95 94 7a be 43 ac a8 3e 35 b5 e6 be
       0.09101713 -0.24470742 0.32943925 -0.45060125
0000c0 d2 86 81 be b1 d5 92 3e 3a 02 99 3e 72 ea 04 be
       -0.25298172 0.2867866 0.2988451 -0.12980059
0000d0 6f 8d 0d 3f 7e f2 66 bf 6a 21 f9 3d 0c 0e d9 be
       0.55293936 -0.90213764 0.12164576 -0.4239353
0000e0 82 2b 76 3e 9f 9c 3e 3e 2f 37 a3 3e 7d a8 2f 3e
       0.24040034 0.18614434 0.3187804 0.17154117
0000f0 34 e7 5c 3e bc ad 7e be 10 e1 80 be c5 bd 8e 3e
       0.21572572 -0.24870962 -0.2517171 0.27879158
000100 11 80 0f 3e 0c 7a 3c bd 03 c8 06 40 78 75 4f be
       0.14013697 -0.04601483 2.1059577 -0.20259655
000110 f0 c7 ea be c3 02 d1 3e e9 b2 4c 3f 3e 84 8d 3e
       -0.45855665 0.4082242 0.79960495 0.27639955
000120 26 53 27 be 0f 50 80 be 64 2f 96 3e 11 90 d5 bd
       -0.16340312 -0.2506108 0.2933303 -0.10427869
000130 de 20 b4 3d 60 48 46 bf a1 16 b0 bd cc d9 64 3d
       0.087953314 -0.77454185 -0.08598066 0.05587177
000140 07 26 94 bd b1 19 54 3e 2d ad 86 3e e5 70 31 bc
       -0.07233816 0.20712925 0.26303998 -0.010830139
000150 93 29 b7 3f b4 b3 81 3f 1c f7 91 be 48 24 b0 be
       1.4309562 1.0132966 -0.28508842 -0.3440268
000160 e6 b3 a9 be 40 01 4d bf 68 fc 00 be 2b 84 ce be
       -0.33145064 -0.8008003 -0.12596285 -0.4033521
000170 50 f3 b4 3f 84 fb 1e 3f 25 8f c0 be 3b 8e 92 bf
       1.4136753 0.6210253 -0.3760921 -1.1449655
000180 a7 d1 2a bf cf 87 9c bd 53 1c 34 be 99 b3 f9 3e
       -0.66726154 -0.07643091 -0.1758893 0.48769835
000190 bf f2 02 3f 5f 3d 81 bf 3c b5 e3 bc 57 3a 08 3f
       0.5115165 -1.0096854 -0.02779638 0.5321402
0001a0 37 b3 0e be 3b c9 c0 3d 92 77 3a 3e 3a 45 fb 3e
       -0.13935553 0.09413382 0.18209675 0.49076253
0001b0 aa af a9 3e 3f c0 04 bf 00 07 9b 3d 7e 1a 1a bf
       0.33141834 -0.51855844 0.075696945 -0.60196674
0001c0 b1 96 f2 bd 07 b1 4b bf ad 76 69 3f a0 67 c0 bf
       -0.11845148 -0.79567 0.9119671 -1.5031624
0001d0 b3 ae 88 3e 84 70 30 bf e3 06 12 3f bf fa f5 bd
       0.26695785 -0.68921685 0.5704176 -0.12010717
0001e0 a0 99 ca 3e 56 6d a9 bd 9b 76 4a 3e f8 85 98 3e
       0.39570332 -0.08272807 0.19771807 0.2978971
0001f0 ae 78 fe 3d 9d 79 f3 bd 80 32 ba be d9 9d 83 3f
       0.124253616 -0.1188843 -0.36366653 1.0282546
000200 f9 89 ec 3c b8 4d 62 3e e8 7a 43 bc e1 24 7d 3d
       0.028874384 0.2209996 -0.011931159 0.06180275
000210 31 61 9c bc 75 01 51 be 89 db 86 bc 73 0a 06 bf
       -0.019089313 -0.20410712 -0.016462104 -0.52359694
000220 0c a6 56 be 7f af 80 bf f3 72 e2 3e 9d 49 e2 bd
       -0.2096178 -1.0053557 0.44228324 -0.11049197
000230 47 c4 8e be 8a e8 1c bf 93 8e ba 3e 61 09 af 3e
       -0.27884123 -0.61292326 0.364369 0.34186843
000240 40 9a 14 3e c3 66 27 3e 6a 1e d8 3e dd 88 e8 bd
       0.14511967 0.16347794 0.42210704 -0.113542296
000250 38 05 23 3f 32 44 30 3d bb 82 b3 3d f3 1f 9c be
       0.6367984 0.043033786 0.08765169 -0.30493125
000260 d4 09 f9 bd 83 fa 3a bc e4 56 ae 3e 4f 75 72 bd
       -0.12160078 -0.011412266 0.34050667 -0.059193905
000270 d8 2e f1 bd 2f 1d bd be 30 6f 27 3e 7c a0 44 bd
       -0.11776513 -0.36936328 0.16351008 -0.048004612
000280 86 d4 07 3d 80 ab 07 bf dc 24 02 3e da 1c a7 3e
       0.033161663 -0.52996063 0.12709373 0.326392
000290 48 72 91 bd fb 3c 00 3f e0 db 3e be 5a af 9a 3c
       -0.071018755 0.5009305 -0.18638563 0.018882442
0002a0 ad da 86 bd d1 e4 22 3d 98 6a be 3e 99 7b 42 3f
       -0.06584678 0.039768998 0.371907 0.75969845
0002b0 16 7f 85 be 5b bd 68 be 57 6c b1 3e 34 ef 2b be
       -0.2607352 -0.22728483 0.3465297 -0.16790468
0002c0 6c f1 f6 bd f8 e9 a3 38 57 0a 47 3e aa da 89 3d
       -0.12057766 7.816026e-05 0.19437538 0.0673116
0002d0 25 80 1a 3e 38 49 28 be 67 d0 4f be 9b d0 0b bf
       0.15087946 -0.1643418 -0.20294343 -0.5461518
0002e0 12 90 1c 3e 19 77 b7 3e c1 d8 d9 3e 3c 68 45 bc
       0.15289333 0.35833052 0.42548183 -0.012048777
0002f0 69 8b 03 3f f2 c6 af be 56 3a 4d 3e 9d 66 fd bb
       0.513846 -0.3433147 0.20041785 -0.0077331797
000300 7a a4 18 bd b6 2b 5f bd 74 02 80 3c 4e b8 6d 3d
       -0.037266232 -0.054485045 0.01562617 0.058037095
000310 e0 12 66 bd 19 ab e5 bd 50 68 24 be 4e 3c 44 3d
       -0.056170344 -0.11214275 -0.16055417 0.047909074
000320 94 a7 da bd b6 87 31 3e 0d d1 c2 3e c9 eb 0e 3e
       -0.10676494 0.17336926 0.38050118 0.13957132
000330 0b f9 80 be 88 d4 bb bd aa 58 45 3e b4 1b 20 bf
       -0.25190005 -0.091713965 0.19272104 -0.6254227
000340 cc 4e 1d be 17 37 68 bd dd 8d 1a be f4 30 3d bf
       -0.1536209 -0.056693163 -0.15093179 -0.7390282
000350 a0 05 da bd a8 64 95 3e 59 21 c8 3c bb 4d 9c 3c
       -0.10645604 0.29178357 0.024429964 0.019080034
000360 39 5f 5f 3d 31 1a 13 be c2 ab 13 3e 0d 5e 5e be
       0.05453417 -0.1436546 0.14420989 -0.21715565
000370 56 37 1a bd 77 95 8c bd 63 5f 05 3e 3c 83 68 be
       -0.03765043 -0.06864446 0.13024668 -0.22706312
000380 b9 07 3c 3e c3 76 2b bf 75 26 5c 3e 7c d4 c3 3d
       0.18362321 -0.6697809 0.21499045 0.095620126
000390 2d d2 c7 be 57 67 b5 3e b6 3c 5f be fd c4 20 3e
       -0.3902754 0.35430405 -0.21800503 0.15700145
0003a0 db a4 5a 3e 7b 1e 6c be 4a 6d 56 be 76 c8 1e 3d
       0.2135195 -0.23058502 -0.20940128 0.038765393
0003b0 cd 96 a9 bd 9b a4 df be 54 8c 0d 3e 0f 2b 20 3e
       -0.08280716 -0.43680272 0.13823062 0.15641426
0003c0 1c d5 3e bd f6 5c ec 3d 81 8b da 3d 99 f1 21 bf
       -0.046589956 0.115411684 0.106711395 -0.63259274
0003d0 98 2d b1 3b 09 b6 3a be d2 e5 8c 3d ff ee f1 bd
       0.0054070465 -0.18233503 0.06879772 -0.11813163
0003e0 ff 5e dd be 43 a7 2b be 89 d4 c4 3b 66 e2 1c 3e
       -0.4323654 -0.16763024 0.0060067815 0.15320739
0003f0 72 53 0a 3e ac 6d ee 3d 7f 23 0f 3b b3 f8 9b 3c
       0.13508394 0.11642012 0.0021841226 0.019039487

rnn.bias_ih_l0 f4 [256]
000000 78 9b 28 3e 4e b8 73 3d a4 37 a9 3e d7 88 40 3e
       0.16465557 0.05950194 0.33050263 0.188022
000010 d9 ac 35 3e 7f 7a c1 3e d8 4c cb bc 70 52 a1 3e
       0.17741717 0.3778877 -0.024816915 0.31508207
000020 51 49 5b 3e 67 e1 a8 3d 7b 1b 25 3e 49 e7 bc 3d
       0.21414687 0.08246117 0.16123764 0.09223802
000030 7f 4c c7 3e 33 b3 21 3e 0f d1 80 3e 32 c5 78 3e
       0.3892555 0.15791015 0.251595 0.24293974
000040 b5 3d 88 3e ef 02 ca 3e 8d 79 93 3b 27 43 60 be
       0.2660958 0.39455363 0.004500574 -0.21900617
000050 4c 68 b4 3e 84 20 ef 3d 57 e7 9e 3e 7b 5b d1 3c
       0.35235822 0.11676124 0.31035873 0.025556317
000060 bb 5a 9e 3c 70 98 1f 3c 3c 56 17 3e 64 8e 8d 3d
       0.019330373 0.009740934 0.1477899 0.069119245
000070 cf 4e 5b 3e 4a 8a dc 3d b8 d2 cd 3c 1a c5 bc 3e
       0.21416782 0.10768564 0.025124893 0.36869127
000080 58 56 6b 3d 83 63 07 3e 8a aa e2 bc 54 6d 8a 3d
       0.05745539 0.13221554 -0.02766921 0.06759134
000090 99 53 d1 3e 22 6e c6 3e 50 6d ba 3d f9 2e 8c 3e
       0.40884092 0.387559 0.09102881 0.27379587
0000a0 64 c8 26 3e bb 4d 8f 3e 63 05 6f bd a5 4f 1a 3e
       0.1628738 0.2798899 -0.058354747 0.15069444
0000b0 de ff 86 3d 25 af 98 3d 97 1b d6 3d 2b 1b b6 3e
       0.065917715 0.07455281 0.10454481 0.35567603
0000c0 8d 73 7b 3e 59 52 32 3e 86 c4 c4 3e 6c 0d 5b 3e
       0.24555798 0.17414226 0.38431185 0.21391839
0000d0 b6 0a 53 3e e6 f4 eb 3d 34 0a c9 bd 84 96 0f 3d
       0.20609555 0.1152132 -0.09816399 0.035055652
0000e0 81 15 72 3d 2a 77 4d 3d 95 d9 1a 3d 54 af 53 3e
       0.05910254 0.05016247 0.03780516 0.20672351
0000f0 9c e1 30 3e 31 64 26 3e ab 80 72 3e 52 e0 e9 3d
       0.17273563 0.16249157 0.23681895 0.11419739
000100 04 f0 3b 3e d3 de 92 be 33 f0 36 bc ca 87 50 bd
       0.18353277 -0.28685626 -0.011165666 -0.05091075
000110 2a b1 03 3e 4c 60 b1 bc c5 2e a0 bc dc 5a 90 bd
       0.12860551 -0.021652363 -0.019553551 -0.0704858
000120 31 8e 28 3d b7 1e 4c 3e 78 9c 4c 3e 6f 22 47 3e
       0.04115123 0.19933592 0.19981563 0.19446729
000130 f0 25 cb 3d 52 ec 3e 3d fc 14 5e be 3f c1 64 3e
       0.099193454 0.04661209 -0.21687692 0.22339343
000140 cc d7 73 bd 58 0a 09 3e 89 67 75 3e 82 3a 8c bc
       -0.05953197 0.13382852 0.23965277 -0.017117742
000150 a5 ba 2c 3d fb 28 0e bb 71 e2 96 bd ce 64 2d 3d
       0.042170186 -0.0021691907 -0.07367409 0.042332463
000160 77 29 82 bb 48 b7 5a 3e 38 e4 73 3e 4c b3 c2 3c
       -0.003972228 0.21358979 0.23817527 0.023767136
000170 94 42 e6 bb db 8a 9d bd 41 bf 8a 3e f8 48 13 3e
       -0.0070269797 -0.076925 0.2709904 0.14383304
000180 15 10 c1 bd 61 dc 93 3d 51 9a 8c 3d 2b e6 84 3d
       -0.094268955 0.07219768 0.06865371 0.064892136
000190 ae c8 81 3e 97 a8 2d 3d 1b 09 ec bc 6a 85 87 3c
       0.2534842 0.042397108 -0.028812936 0.016543109
0001a0 3a 9d 11 3e 8f 5b 9c 3d df 41 97 3c 32 b1 93 3d
       0.14220133 0.07634651 0.018464027 0.07211532
0001b0 3c e2 0d bc 5b e2 5a bd ef 3b 38 3e de 1c 01 3c
       -0.0086598955 -0.053438526 0.17991613 0.007880418
0001c0 9a 75 3b bd 6d ba ec 3d 87 28 06 bd 22 5e 25 3e
       -0.04576645 0.115589954 -0.032753494 0.1614919
0001d0 a8 f2 53 3e 0f 73 92 3c 32 2d 4b 3e ba 15 96 3e
       0.20698035 0.01787713 0.1984146 0.2931345
0001e0 8b 45 a5 3d 97 3e 9e 3c c7 2a 5e 3e c5 28 11 bd
       0.08069905 0.019316955 0.21696006 -0.03543927
0001f0 69 ed f7 3d eb e3 93 3e 4f 0d bc bd 48 a0 49 3e
       0.12105829 0.28884825 -0.09182226 0.19690049
000200 3d 1a 01 bd f4 83 59 be ad 96 db 3c 44 29 bf 3d
       -0.031519163 -0.21241742 0.026805246 0.09334043
000210 6e 95 96 3c 33 50 87 bc b1 fd 59 3d c8 24 33 3d
       0.0183818 -0.016517734 0.053220455 0.04373625
000220 09 27 2f bd fe 27 e5 bd 46 23 df 3d 57 3a 1c be
       -0.042761836 -0.111892685 0.108954 -0.1525663
000230 b8 f6 9a bd 20 ad 4f be 8c be 7b bd b7 04 e3 3c
       -0.07566589 -0.20280886 -0.061461017 0.02771221
000240 97 dc e4 bd 9d 64 6f 3e a7 ad cd 3c 9c 04 c2 3d
       -0.11174887 0.23378225 0.025107218 0.094735354
000250 0c 72 12 3e 01 30 83 bc 3c 1a e4 bd 53 2c 89 bd
       0.14301318 -0.016014101 -0.11137816 -0.06697907
000260 86 ee 2a be 41 4c aa bd 0e 03 36 be f9 f8 0b be
       -0.16692552 -0.083153255 -0.17774603 -0.13669194
000270 91 54 13 3e 56 04 a7 3b 1d bb e7 bc c4 62 f2 bc
       0.14387728 0.0050969524 -0.028287465 -0.02958811
000280 fe c5 4f be 7e 9c 21 be d3 9a 4f bc 08 8e f7 3d
       -0.20290372 -0.15782353 -0.01267119 0.12087637
000290 63 2e 86 3e 81 ed 9d bd 60 61 09 be 15 d2 21 bd
       0.26207265 -0.07711316 -0.13416052 -0.03950699
0002a0 97 68 05 be 69 4a 11 be 3c 78 b1 3d 94 a4 45 3e
       -0.13028179 -0.14188541 0.08665511 0.19301063
0002b0 ab f0 b5 3c 88 97 94 bd c4 51 4f 3e df ef ee bd
       0.022209486 -0.07255465 0.20246035 -0.116668455
0002c0 ec ab 5b be 25 24 df 3d c7 ab 40 3e 7f 2d 0c be
       -0.21452302 0.10895566 0.18815528 -0.1368923
0002d0 82 72 a3 3d 90 a1 05 be 56 59 3f 3d 2a e6 ad bd
       0.07980825 -0.13049912 0.046716057 -0.08491166
0002e0 7f 50 90 bd 35 71 28 3e a9 33 de 3c b1 91 dc 3d
       -0.070466034 0.16449435 0.027124243 0.10769976
0002f0 2b 2b be 3d e3 72 00 be b6 56 02 be 00 ec 72 bc
       0.092855774 -0.12543826 -0.1272839 -0.014826775
000300 d4 2b 1c 3e b0 7d fc 3d 8d 23 d4 3c 35 b3 63 3e
       0.15251094 0.123286605 0.025895858 0.22236331
000310 02 9c ac 3d 50 da bb 3e ed 8a fa 3d 27 b2 08 3e
       0.08428194 0.36689997 0.12233529 0.1334921
000320 3b 43 45 3e 56 1a f8 bc 0b 1d c4 bd d8 88 5f 3e
       0.19263928 -0.030285995 -0.09575852 0.21829545
000330 a5 75 92 3e 6e 18 a1 3e 29 58 ce 3e 8c be a6 bc
       0.2860538 0.3146395 0.40301636 -0.020354532
000340 2d 9f b0 3d df 40 41 bd fe 85 88 bc 06 b8 a8 bd
       0.0862411 -0.047181007 -0.016665455 -0.08238225
000350 78 dc 91 3e cb 60 51 3e 2e a5 d4 bd 6b d5 1f 3d
       0.28488517 0.2044708 -0.10383068 0.03902189
000360 69 36 8a 3d 18 ee 03 3e d3 2e d7 3d 0a 31 56 3e
       0.06748659 0.12883794 0.10506978 0.20917144
000370 9f 99 50 3e be 14 65 3e 49 7f dd 3c e6 6c a1 3d
       0.20371102 0.22371194 0.027038233 0.07882099
000380 fe 52 8b 3e 47 ad 84 3d dd b6 a3 3d 18 a9 c4 bd
       0.27211756 0.064783625 0.07993863 -0.096025646
000390 3f 1c 85 3e 95 35 51 3d 8c dd 11 3e 28 16 0d bc
       0.25998113 0.05107649 0.1424467 -0.0086112395
0003a0 bb ea 48 3e e5 bf bf 3d 5f 5d 0a be de b1 d5 3d
       0.19620793 0.09362773 -0.13512181 0.10434316
0003b0 db a4 71 3e f9 ff 35 3e 44 8f ef 3d 09 00 65 3e
       0.23598044 0.17773427 0.116972476 0.22363295
0003c0 91 4a 53 3e d8 f6 6b bd 69 c2 24 3f b2 57 05 3f
       0.20633914 -0.057608455 0.64359146 0.5208694
0003d0 d5 87 31 3e 14 e4 90 bc 27 26 3f 3e 27 0b 34 3c
       0.17336972 -0.017686881 0.18666898 0.010988987
0003e0 53 29 79 3d 3c b5 b4 3e 71 c7 ad 3d b2 22 20 3e
       0.060830425 0.3529452 0.08485306 0.15638235
0003f0 e5 7a 32 3d 30 35 10 3e e6 88 bd 3e 96 24 0e 3e
       0.043574233 0.1408279 0.37018508 0.13881144

rnn.bias_hh_l0 f4 [256]
000000 21 a0 3d 3e 19 c7 0e 3d f6 8d 21 3e 33 14 0b 3e
       0.18518116 0.034857843 0.1577681 0.13581924
000010 da 24 81 3e e0 80 da 3e a5 dd 0b 3c 49 ea 63 3e
       0.25223428 0.4267645 0.008536731 0.22257341
000020 5f 4c 14 3e 8c ae 12 3d ca 9d db 3d a2 b4 e7 3d
       0.14482258 0.035810992 0.10723455 0.1131375
000030 d5 e1 93 3e 2c 71 8e 3e 02 d0 c6 3e e7 05 5c 3e
       0.28883234 0.27820718 0.38830572 0.21486627
000040 be 38 ae 3e d1 66 87 3e ea c8 a1 3d e3 7b b3 bd
       0.34027666 0.2644563 0.078996494 -0.08763864
000050 d9 2b 9b 3e 68 a0 75 3e a9 f8 80 3e ef 05 ac bb
       0.3030689 0.23986971 0.25189713 -0.005249731
000060 09 6e d6 3c c7 da 60 3e 5f 3a e9 3d e3 b4 27 bd
       0.026175516 0.21958457 0.113880865 -0.04094399
000070 f1 09 84 3e 97 ed 3e 3e cc 8f 6d 3d ab 07 87 3e
       0.25788835 0.18645321 0.057998464 0.26373038
000080 83 88 9d bc 6d a9 3f 3e 53 72 a9 bd d6 c5 42 3e
       -0.019230133 0.18716975 -0.08273759 0.19020781
000090 56 51 05 3f 70 a7 11 3f 58 00 f0 3d 5f 57 53 3e
       0.52077234 0.56896114 0.117188156 0.20638798
0000a0 08 98 b7 3d 3a e0 8c 3e a8 9a c8 3d c7 83 2e 3e
       0.089645445 0.2751482 0.09795123 0.17042457
0000b0 8f a5 9d 3e d7 87 1f 3e a6 3b df 3c 09 1b 68 3e
       0.30790374 0.15579163 0.027250122 0.22666563
0000c0 df 60 bb 3e db 25 5f 3e 3c 71 66 3e a5 27 e1 3d
       0.36597344 0.21791784 0.22504133 0.1099389
0000d0 a3 98 90 bc b3 cc 78 3e c7 ba 4e be cd 11 22 3e
       -0.017650908 0.24296837 -0.20188437 0.15827103
0000e0 e4 21 b8 3b a0 c7 ae 3d 81 d8 20 3e c1 fe a1 3d
       0.0056192745 0.08534169 0.1570759 0.079099186
0000f0 4d 64 4f 3e 19 c0 aa 3e 29 d8 87 3e e0 50 86 3e
       0.20253105 0.33349684 0.26532105 0.26233578
000100 b8 05 fa 3c 49 7d 84 be 91 d5 48 3d 14 55 10 3e
       0.030520305 -0.25876835 0.049031798 0.14094955
000110 61 15 c2 3c ed 94 4f 3b 7b 4c 37 3e e2 05 e7 3d
       0.023691835 0.003167446 0.17900269 0.11280419
000120 02 6e 15 3e 6a 67 9f bc 5b c1 46 3c 50 8a c3 3c
       0.14592746 -0.019458491 0.0121310605 0.023869663
000130 43 f4 bf 3d 46 3d 27 3e 42 77 36 be 0f 49 57 bb
       0.09372761 0.16331968 -0.17818931 -0.0032849943
000140 06 80 45 3d a3 7a c2 3d 37 a7 13 3d 11 6f 33 3d
       0.048217796 0.09496047 0.03604814 0.043807093
000150 bc 3c dc 3d 74 20 74 bc 4e ab fc 3a 4d af 58 3e
       0.10753772 -0.014900316 0.0019277127 0.21160622
000160 24 9e e0 bd 0e b4 59 3e 27 ef 84 3e f0 07 47 3e
       -0.10967663 0.21260092 0.2596371 0.19436622
000170 20 7b be bc 1d 15 13 bd 4b fe a7 3d 9d f7 40 3d
       -0.02325207 -0.035908807 0.082027994 0.047111142
000180 df b5 0f bd b2 d6 c5 3d 58 b4 b4 3d f2 1f 78 bd
       -0.035085555 0.096600905 0.0882346 -0.06057734
000190 00 16 14 3e 9b 61 d7 bb 95 e5 9a bd 11 3c dd 3a
       0.14461517 -0.006572915 -0.075633205 0.0016878863
0001a0 39 da 49 3e fb 53 8e 3d ff a4 cb bd fe c5 df 3d
       0.19712152 0.06949612 -0.0994358 0.10926436
0001b0 21 ec 27 be 41 62 93 bd 48 0b 5e 3e 53 d7 02 bd
       -0.1639867 -0.07196475 0.21683991 -0.03194363
0001c0 bd d8 e3 bd 95 a5 aa 3d 9e 76 b0 3c d5 c4 46 3e
       -0.11125324 0.083323635 0.021540936 0.19411023
0001d0 20 d9 1f 3e eb aa a3 bc a8 56 41 3e 48 77 fc 3d
       0.1561017 -0.019978961 0.18880713 0.123274386
0001e0 7a f1 8e 3e 01 ad cd 3d 1a 6a 37 3e 29 b5 f2 3d
       0.27918607 0.100427635 0.17911568 0.1185096
0001f0 69 e2 67 3c a2 8a 56 3e e8 b0 44 be af b0 ce 3d
       0.0141531015 0.20951322 -0.1920811 0.100922935
000200 62 a3 e4 3d b9 a2 17 bc 11 54 40 3d 37 33 fe 3d
       0.11163975 -0.009255105 0.046955172 0.12412112
000210 a4 78 ad 3d b9 e3 c2 3d c1 a5 98 3d 51 0f 03 3e
       0.08470276 0.09516091 0.0745349 0.12798811
000220 13 1e 16 3d 42 81 34 bc 08 1a 45 3e 8c d0 51 be
       0.036649775 -0.011017146 0.19248211 -0.2048971
000230 f6 09 67 bc 56 1f 1d be 1b a1 cc 3d 2f 45 70 39
       -0.014101496 -0.15343985 0.09991666 0.00022913956
000240 44 81 02 3d d0 7e 9a 3e 4d de 03 3e ed 11 d4 bb
       0.03186156 0.30174875 0.1287777 -0.0064718635
000250 ec 7b be 3d 5e 2d b2 3d fe c9 37 bd 0e e4 e6 bc
       0.0930098 0.08700059 -0.04487037 -0.028184917
000260 29 95 21 be 60 73 88 bd ae 64 db 3c bc 00 e7 bc
       -0.15779556 -0.06662631 0.026781406 -0.028198592
000270 a8 ad ba 3d 00 59 31 3e 36 82 64 bd ab 47 3a be
       0.091151536 0.17319107 -0.05578824 -0.18191402
000280 88 64 16 bc 47 53 0a be 2d 1d 12 3e 91 d7 12 3e
       -0.009179242 -0.1350833 0.14268942 0.14340045
000290 9c ba 16 3e f2 44 68 be bb 3f 71 3c a3 c4 dd 3d
       0.14719623 -0.2268255 0.014724667 0.10828521
0002a0 00 b3 bb bd 9b 43 7f 3d 95 43 b0 3d a8 61 02 3e
       -0.09165001 0.062320333 0.0860664 0.12732565
0002b0 e0 44 0c 3d ba e3 97 bc 73 fd 33 3e 55 66 3f be
       0.03424537 -0.018541206 0.17577152 -0.1869138
0002c0 e6 de 51 3c 2e b7 91 3d 89 43 6d 3e 18 83 6a be
       0.012809491 0.07115017 0.23170294 -0.22901571
0002d0 2b 8f 39 3e c6 63 e5 3c f0 cd a4 3d e0 35 cf bd
       0.1812102 0.028001677 0.08047092 -0.10117698
0002e0 fb b1 30 be 81 5d 1e 3d 73 0d 4d 3e f6 0f e4 3d
       -0.17255394 0.03866339 0.20024662 0.11135857
0002f0 3e 16 96 3c 78 f9 0c bd 1b df 60 bd 3b bc a6 3d
       0.018321153 -0.0344176 -0.05490027 0.08141371
000300 70 d0 c6 3d 10 b7 35 3e 09 a9 78 3c 7b 45 fc 3c
       0.09707725 0.17745614 0.01517702 0.03079485
000310 b0 a0 d7 3d 12 a6 c6 3e bc 5f 36 ba 1e a4 85 3e
       0.105286956 0.38798577 -0.00069570146 0.26101774
000320 37 2f 9c 3e bc 81 e5 3d d4 58 a1 3d 64 ae 53 3e
       0.30504772 0.112063855 0.07878271 0.20671993
000330 f4 79 90 3e 11 a6 0b 3e 8f 26 c0 3e db 39 aa 3d
       0.28218043 0.13637568 0.37529418 0.08311816
000340 05 0f 1a 3d 1d 83 18 3e 71 1a b5 bd 73 9a 9f bd
       0.03761198 0.14893766 -0.08842934 -0.07793131
000350 a7 e7 7b 3e ae 52 54 3e dc 14 d5 bd 42 41 ed 3d
       0.24600087 0.20734665 -0.10404369 0.115847126
000360 88 97 40 3d a5 c3 5e 3d 89 d4 ff bb 8c 6e 65 3d
       0.04701951 0.0543858 -0.0078073186 0.05601363
000370 79 8b 09 3e c3 15 59 3e d7 ee 3c 3d 49 c8 99 3d
       0.13432111 0.21199708 0.046126213 0.075089045
000380 6e 9f ce 3e 96 fb bb 3d 8a 73 73 bd 30 0a a9 bd
       0.4035601 0.091788456 -0.05943636 -0.08253896
000390 71 61 6a 3e 03 50 aa 3d a8 3e 99 3d 3c ee 6d 3c
       0.22888733 0.08316042 0.07482654 0.0145221315
0003a0 bf a6 0b 3e 2f 3c 6c 3e 4e 3b 16 3d 86 a5 27 3e
       0.13637827 0.23069833 0.03667765 0.16371736
0003b0 0d 89 79 3e a9 31 37 3e b3 5f 32 3e d0 67 54 3e
       0.24368687 0.17890038 0.17419319 0.20742726
0003c0 dd ff 7d 3d b7 69 ca 3a e0 81 15 3f 9b 2b ce 3e
       0.06201159 0.0015442882 0.584013 0.40267643
0003d0 dd 87 39 3e 00 b0 1e 3e 31 31 b1 bc 18 d7 47 3e
       0.18118234 0.15496826 -0.021629902 0.19515646
0003e0 d4 f0 f6 bc ca a9 6a 3e 84 69 9e 3d 61 c5 bc 3d
       -0.030144133 0.22916332 0.07734969 0.092173345
0003f0 af 2b fb 3d 06 5b 67 3c 83 25 c2 3e d1 32 a2 3d
       0.12264191 0.014120823 0.37919244 0.07919849

out.weight f4 [42, 64]
000000 51 5c 8f 3e 0b e2 af bd d5 53 ef be bb ea 86 3e
       0.2800012 -0.08588036 -0.46743646 0.2635096
000010 88 f1 0d 3e 9f 3e 16 bf fd 07 88 3e 06 b5 dd be
       0.13861668 -0.586893 0.26568595 -0.43302172
000020 67 81 bc be 0f 46 05 be 5c 8b 1c 3e 35 47 ab 3e
       -0.36817476 -0.13015006 0.15287536 0.33452764
000030 98 3e d5 bd 54 b7 11 be 2b a8 42 be 22 dd 81 3e
       -0.104123294 -0.1423009 -0.19009463 0.25364023
000040 32 9b bf 3e 50 60 a6 3d 8a 2c 06 3e 59 33 1b 3f
       0.37423092 0.08123839 0.13102928 0.60625225
000050 51 48 6c be 11 f9 09 3e c4 e2 d2 3e 1a 27 d9 bd
       -0.23074462 0.13473918 0.41188633 -0.10603161
000060 f3 28 18 be c1 1a be bd 03 3c 9f be 94 71 85 be
       -0.14859371 -0.09282447 -0.31100473 -0.26063216
000070 ee 7b c1 bb dc 2f ad 3e ad 13 3d be de bf 81 bd
       -0.005904666 0.33825576 -0.18464537 -0.06335424
000080 bc 24 a6 bd b2 1c 92 be b5 e7 6b 3e 61 e0 29 3e
       -0.08112475 -0.28537518 0.23037608 0.165895
000090 db 0e a0 be 5a ab c4 3e be 38 d1 bd be 31 7c 3e
       -0.31261334 0.3841198 -0.10215901 0.2462835
0000a0 f9 57 54 be b8 f0 3b 3f 26 23 70 3e a6 3f a5 bd
       -0.20736684 0.7341418 0.23450908 -0.080687806
0000b0 69 f2 a7 be a5 60 26 3e 92 6a c2 3d 89 b3 7f be
       -0.32802132 0.16247804 0.09492983 -0.24970831
0000c0 ce 8a 29 be a8 80 80 3c 54 34 cb be 65 8f 64 3e
       -0.16556856 0.015686348 -0.3968836 0.22320326
0000d0 78 3c 99 3d 96 a4 8f be 1c 3d 91 3e 2a 47 2f be
       0.074822366 -0.28055257 0.28366935 -0.1711699
0000e0 1f 9d 95 be 03 28 92 3e 3f 42 10 3e 93 61 2f 3e
       -0.29221436 0.28546152 0.14087771 0.17127065
0000f0 27 68 35 3e 1b c8 13 be 2f 0e 0b bf 42 7d c5 3d
       0.17715512 -0.14431803 -0.5431852 0.09643032
000100 e9 21 18 bd 59 ca 1e bd b1 10 aa 3e e5 f9 16 be
       -0.037141714 -0.038767193 0.3321586 -0.14743765
000110 60 56 78 bd 63 47 12 3f c2 bc 0c be 28 da eb 3d
       -0.06062925 0.5714018 -0.1374388 0.115162194
000120 72 51 71 3f 99 3b b5 bc 88 37 78 bf 9a 50 53 be
       0.942649 -0.022123145 -0.96959734 -0.20636216
000130 16 fc 06 3e 2b 17 88 3c c0 ca 10 bf 4a 95 23 3e
       0.131821 0.01661261 -0.5655937 0.15974918
000140 82 50 de 3d b2 2e 73 bd d5 c1 46 be 18 34 83 bf
       0.108551994 -0.059370704 -0.19409879 -1.0250273
000150 74 00 1f be 5f c0 45 3e 86 c5 ef bb 21 c8 1e 3e
       -0.15527517 0.19311665 -0.007317248 0.1550603
000160 1d be 6e be 9b 4b 08 be bf d0 23 3f 78 4e b5 bd
       -0.2331471 -0.13310091 0.63990396 -0.08852857
000170 3f 37 5d 3e 12 7e 1e 3e da 28 76 3d 2e 56 69 be
       0.21603106 0.1547778 0.060097553 -0.22786781
000180 93 38 a1 be 93 3d fd bd e2 44 f9 be a1 3a 0a 3e
       -0.31488475 -0.1236526 -0.48685366 0.13498928
000190 af 70 be 3c fa aa 40 be e1 56 a7 bd e2 9f 8d 3e
       0.023247091 -0.18815222 -0.08170868 0.27661043
0001a0 9a 65 89 be 62 f8 05 3f e2 09 db bc 5f 84 31 be
       -0.26835328 0.5233213 -0.02673811 -0.17335652
0001b0 cf 6e 05 3f e4 ca 92 bd 13 c1 a9 3c cb 93 69 be
       0.52122205 -0.071676046 0.020721948 -0.22810285
0001c0 58 68 68 be 21 e2 78 3d eb e3 10 3e 8e 95 84 be
       -0.22696054 0.06076253 0.14149444 -0.2589535
0001d0 5e ae 27 3e 05 68 25 be 99 44 19 3e af 58 9c 3d
       0.1637511 -0.16152962 0.14967574 0.076341026
0001e0 7e 29 62 be 7c 68 0e 3e 45 36 9e bd 75 e2 94 3e
       -0.2208614 0.13907045 -0.07725195 0.29079023
0001f0 08 37 37 3d 27 0c 88 3d f4 26 0c bf c7 19 8f 3e
       0.044730216 0.06642943 -0.5474694 0.27949354
000200 c7 4c 9c 3d ee 7c 38 3e 31 c6 99 3d 96 85 05 3e
       0.076318316 0.18016407 0.07508505 0.1303924
000210 c4 38 48 3e 7d f9 bc be 75 3f a4 3e 53 b9 c7 3e
       0.19552904 -0.36909094 0.32079664 0.3900858
000220 a0 72 d6 be de 06 c3 bc e6 f1 10 3e f6 82 57 be
       -0.41884327 -0.023806985 0.14154777 -0.21046051
000230 a8 d5 cc 3d ab 1c 00 3e bc c3 fa 3e 42 37 86 3d
       0.10001689 0.12510936 0.48977458 0.06553508
000240 93 ec 8e be 01 c2 02 3e ef 48 09 3e 08 83 13 bf
       -0.27914867 0.12769319 0.13406728 -0.5762181
000250 78 ed 07 3f bd b9 09 bf 8d 20 ae be f2 68 22 be
       0.53096724 -0.5379904 -0.3400921 -0.15860346
000260 c4 25 cc 3d e7 24 32 3e c8 2c aa 3e d3 89 34 be
       0.09968141 0.1739689 0.3323729 -0.17630701
000270 03 e9 c8 bd b3 e8 1e bf f9 1e e6 bd be a7 7d be
       -0.098100685 -0.6207382 -0.11236376 -0.2477102
000280 7e 50 68 3e 60 d3 51 be 03 9a 9d 3e 30 72 00 3d
       0.22686955 -0.2049079 0.30781564 0.031358898
000290 b3 f4 94 3e 8f 60 b5 be 03 60 9f 3e ad 31 81 be
       0.2909294 -0.3542523 0.3112794 -0.25233212
0002a0 ca 3f e0 3e 9f e7 2b bf ca 1f 1b bf 99 93 39 3e
       0.43798667 -0.671503 -0.6059538 0.1812271
0002b0 56 bb f9 be 0c 1b 48 3e c8 f2 f1 3d 48 3d 31 3e
       -0.48775738 0.19541568 0.11813885 0.17308533
0002c0 8e 46 f3 3e 2b cf 03 3c 4f 8a b0 3e 9d df b9 bd
       0.47514766 0.008044998 0.3448052 -0.09075854
0002d0 3f 62 b4 3c 7d 21 ac bd 91 8a 9d 3e a8 b3 63 be
       0.022019504 -0.08404825 0.3076978 -0.22236502
0002e0 68 c6 11 bd 58 7d 83 3e 6a 33 45 3e 71 95 89 3d
       -0.035589606 0.25681567 0.19257894 0.06717957
0002f0 fd 18 09 3d ec 91 43 be 3a 3a 27 3f db 05 41 bf
       0.033471096 -0.19098634 0.6532322 -0.7539956
000300 d4 11 be 3e ec 4a 0f 3d f5 ac 1e 3e 1c 83 92 3d
       0.37122977 0.03498356 0.15495665 0.071539134
000310 08 69 21 3d 13 c2 f2 be 2b b8 9b be 0f 2a f6 3d
       0.039406806 -0.47413692 -0.30413947 0.12019741
000320 00 52 9c be 1c 2b 81 bd f6 85 45 3e 16 d0 98 be
       -0.3053131 -0.063070506 0.19289383 -0.29846257
000330 9a 85 18 bd 26 cc 23 bd 72 05 21 3f 4a eb ee 3d
       -0.037236787 -0.039989613 0.62898934 0.116659716
000340 81 2b 70 be 10 c0 2d 3e dd 27 28 3e 57 30 4c bd
       -0.23454095 0.16967797 0.16421457 -0.049850788
000350 94 5a 87 3e 1c b8 a0 3e cf 29 92 be 47 c1 25 be
       0.26436293 0.31390464 -0.28547522 -0.1618701
000360 3c 4c c9 3e ad 12 c9 3d d2 17 d0 3e d1 e1 39 bd
       0.39315975 0.09818015 0.40643173 -0.04538137
000370 8f 25 3c 3e 6f cc 95 be aa 70 12 be ea 24 b3 3e
       0.18373702 -0.29257533 -0.1430079 0.349891
000380 e9 11 01 3e 9e ca 99 be 18 e0 9b 3c 27 36 60 3e
       0.12604488 -0.30037397 0.019027755 0.21895657
000390 4b 59 95 3e c3 8f 9a be 17 8a 9e 3e 4f 9d 9f be
       0.29169688 -0.30187806 0.3096473 -0.31174704
0003a0 7d c6 46 3f 60 fc 5b bf f9 b7 42 be 49 cf 98 3e
       0.7764662 -0.8593197 -0.19015492 0.29845646
0003b0 47 e3 f6 be 6f 08 d4 bd f9 0e 0b 3e 24 31 d2 3e
       -0.48220274 -0.10353171 0.1357993 0.41053116
0003c0 80 70 ec 3e fa a4 b3 bd c7 c4 d5 bd 60 91 af be
       0.4617958 -0.08771701 -0.10437923 -0.342906
0003d0 8f 24 71 3d 99 9b 26 be 8b 9b 89 3c 14 ec 39 be
       0.058872756 -0.16270293 0.016797801 -0.18156463
0003e0 20 bf 1e be 8d a6 94 3e 62 52 ef 3d 0b 20 4d 3e
       -0.15502596 0.29033318 0.11685635 0.20031755
0003f0 3c f4 e3 3d 04 f8 78 be 79 df 37 3f 7d d8 e4 be
       0.111305684 -0.2431336 0.7182537 -0.44696417

out.bias f4 [42]
000000 2a a8 7e bd be 3c 31 3e 1e 1d 1b 3e 2d f9 02 3e
       -0.062172092 0.17308328 0.15147826 0.12790366
000010 f7 92 84 3e c2 3e 0b 3e 69 c6 46 3e b9 0a fe 3d
       0.25893375 0.13598159 0.19411625 0.12404389
000020 a7 68 6a 3e ea b4 21 3e c7 8c 5a 3e 0f 4d 4f be
       0.22891484 0.1579167 0.21342765 -0.2024424
000030 93 0d ef bc 82 47 89 3d e3 55 54 3e 4b d0 99 bd
       -0.029181277 0.06703092 0.20735888 -0.07510432
000040 66 5e 52 be a5 50 d6 be 4a f6 78 be 9f 48 42 be
       -0.20543823 -0.41858402 -0.24312702 -0.18973015
000050 c9 31 f9 bd 12 59 97 be b5 d4 80 be ec 52 33 be
       -0.12167699 -0.29560143 -0.25162283 -0.17512101
000060 22 31 1d be a1 fa bc be 3f 7c de be 69 84 60 be
       -0.15350774 -0.36909965 -0.43454167 -0.2192551
000070 0c 62 f3 be e9 1b 96 be 6f 7c 37 be 02 e0 f0 bd
       -0.4753574 -0.2931817 -0.17918561 -0.11761476
000080 bd ec bc be 55 5d 8b be 83 df 0b bf 2c ad 04 bf
       -0.36899367 -0.27219644 -0.54637927 -0.5182674
000090 da d3 ec be d5 ec 85 bd 54 c6 be be 82 69 16 bf
       -0.4625538 -0.06539313 -0.37260687 -0.5875474
0000a0 98 89 a4 be 71 5e 10 bf
       -0.32136226 -0.56394106
